…
parameters, which is 4 times 784). The last two parameters, μ and σ, are the moving
averages, they are not affected by backpropagation, so Keras calls them “Non-
trainable”9 (if you count the total number of BN parameters, 3136 + 1200 + 400, and
divide by two, you get 2,368, which is the total number of non-trainable params in
this model).
>>> model.summary()
Model: "sequential_3"
_________________________________________________________________
Layer (type)                 Output Shape              Param #
=================================================================
flatten_3 (Flatten)          (None, 784)               0
_________________________________________________________________
batch_normalization_v2 (Batc (None, 784)               3136
_________________________________________________________________
dense_50 (Dense)             (None, 300)               235500
_________________________________________________________________
batch_normalization_v2_1 (Ba (None, 300)               1200
_________________________________________________________________
dense_51 (Dense)             (None, 100)               30100
_________________________________________________________________
batch_normalization_v2_2 (Ba (None, 100)               400
_________________________________________________________________
dense_52 (Dense)             (None, 10)                1010
=================================================================
Total params: 271,346
Trainable params: 268,978
Non-trainable params: 2,368
Let’s look at the parameters of the first BN layer. Two are trainable (by backprop), and
two are not:
>>> [(var.name, var.trainable) for var in model.layers[1].variables]
[('batch_normalization_v2/gamma:0', True),
 ('batch_normalization_v2/beta:0', True),
 ('batch_normalization_v2/moving_mean:0', False),
…
