…
ast two parameters, \u03bc and \u03c3, are the moving\naverages, they are not affected by backpropagation, so Keras calls them \u201cNon-\ntrainable\u201d9 (if you count the total number of BN parameters, 3136 + 1200 + 400, and\ndivide by two, you get 2,368, which is the total number of non-trainable params in\nthis model).\n>>> model.summary()\nModel: \"sequential_3\"\n_________________________________________________________________\nLayer (type)                 Output Shape              Param #\n=================================================================\nflatten_3 (Flatten)          (None, 784)               0\n_________________________________________________________________\nbatch_normalization_v2 (Batc (None, 784)               3136\n_________________________________________________________________\ndense_50 (Dense)             (None, 300)               235500\n_________________________________________________________________\nbatch_normalization_v2_1 (Ba (None, 300)               1200\n_________________________________________________________________\ndense_51 (Dense)             (None, 100)               30100\n_________________________________________________________________\nbatch_normalization_v2_2 (Ba (None, 100)               400\n_________________________________________________________________\ndense_52 (Dense)             (None, 10)                1010\n=================================================================\nTotal params: 271,346\nTrainable params: 268,978\nNon-trainable params: 2,368\nLet\u2019s look at the parameters of the first BN layer. Two are trainable (by backprop), and\ntwo are not:\n>>> [(var.name, var.trainable) for var in model.layers[1].variables]\n[('batch_normalization_v2/gamma:0', True),\n('batch_normalization_v2/beta
…
